…
HINT: Re-running with most Theano optimization disabled could give you a back-trace of when this node was created. This can be done with by setting the Theano flag 'optimizer=fast_compile'. If that does not work, Theano optimizations can be disabled with 'optimizer=None'.
HINT: Use the Theano flag 'exception_verbosity=high' for a debugprint and storage map footprint of this apply node.


The nework parameters are listed in the following table:


__________________________________________________________________________________________________
Layer (type)                    Output Shape         Param #     Connected to                     
==================================================================================================
input_1 (InputLayer)            (None, 2721, 5)      0                                            
__________________________________________________________________________________________________
input_2 (InputLayer)            (None, 2721, 23)     0                                            
__________________________________________________________________________________________________
masking_1 (Masking)             (None, 2721, 5)      0           input_1[0][0]                    
__________________________________________________________________________________________________
masking_2 (Masking)             (None, 2721, 23)     0           input_2[0][0]                    
__________________________________________________________________________________________________
time_distributed_1 (TimeDistrib (None, 2721, 16)     288         masking_1[0][0]                  
__________________________________________________________________________________________________
time_distributed_3 (TimeDistrib (None, 2721, 64)     4608        masking_2[0][0]                  
__________________________________________________________________________________________________
dropout_1 (Dropout)             (None, 2721, 16)     0           time_distributed_1[0][0]         
__________________________________________________________________________________________________
dropout_4 (Dropout)             (None, 2721, 64)     0           time_distributed_3[0][0]         
__________________________________________________________________________________________________
time_distributed_2 (TimeDistrib (None, 2721, 16)     816         dropout_1[0][0]                  
__________________________________________________________________________________________________
time_distributed_4 (TimeDistrib (None, 2721, 64)     12480       dropout_4[0][0]                  
__________________________________________________________________________________________________
dropout_2 (Dropout)             (None, 2721, 16)     0           time_distributed_2[0][0]         
__________________________________________________________________________________________________
dropout_5 (Dropout)             (None, 2721, 64)     0           time_distributed_4[0][0]         
__________________________________________________________________________________________________
lstm_1 (LSTM)                   (None, 2721, 16)     2112        dropout_2[0][0]                  
__________________________________________________________________________________________________
lstm_3 (LSTM)                   (None, 2721, 64)     33024       dropout_5[0][0]                  
__________________________________________________________________________________________________
dropout_3 (Dropout)             (None, 2721, 16)     0           lstm_1[0][0]                     
__________________________________________________________________________________________________
dropout_6 (Dropout)             (None, 2721, 64)     0           lstm_3[0][0]                     
__________________________________________________________________________________________________
bidirectional_1 (Bidirectional) (None, 2721, 32)     4224        dropout_3[0][0]                  
__________________________________________________________________________________________________
bidirectional_2 (Bidirectional) (None, 2721, 128)    66048       dropout_6[0][0]                  
__________________________________________________________________________________________________
concatenate_1 (Concatenate)     (None, 2721, 160)    0           bidirectional_1[0][0]            
                                                                 bidirectional_2[0][0]            
__________________________________________________________________________________________________
dropout_7 (Dropout)             (None, 2721, 160)    0           concatenate_1[0][0]              
__________________________________________________________________________________________________
bidirectional_3 (Bidirectional) (None, 2721, 256)    295936      dropout_7[0][0]                  
__________________________________________________________________________________________________
dropout_8 (Dropout)             (None, 2721, 256)    0           bidirectional_3[0][0]            
__________________________________________________________________________________________________
bidirectional_4 (Bidirectional) (None, 2721, 256)    394240      dropout_8[0][0]                  
__________________________________________________________________________________________________
dropout_9 (Dropout)             (None, 2721, 256)    0           bidirectional_4[0][0]            
__________________________________________________________________________________________________
time_distributed_5 (TimeDistrib (None, 2721, 128)    98688       dropout_9[0][0]                  
__________________________________________________________________________________________________
dropout_10 (Dropout)            (None, 2721, 128)    0           time_distributed_5[0][0]         
__________________________________________________________________________________________________
time_distributed_6 (TimeDistrib (None, 2721, 2)      258         dropout_10[0][0]                 
__________________________________________________________________________________________________
activation_1 (Activation)       (None, 2721, 2)      0           time_distributed_6[0][0]         
==================================================================================================
Total params: 912,722
Trainable params: 912,722
Non-trainable params: 0
__________________________________________________________________________________________________


I am using theano 1.0.1. The GPU setting is printed below:
Using Theano backend.
…
- Keras-Applications==1.0.2
- Keras-Preprocessing==1.0.1
- tensorflow-gpu==1.9.0"
keras,5014,"There is my model:


 I fitted the model.However when I load it from a .h5 file,i got an error.


I guess it may caused by the complicacy of my model?",0,Error loading a saved model?,"Error loading a saved model? There is my model:


 I fitted the model.However when I load it from a .h5 file,i got an error.


I guess it may caused by the complicacy of my model?"
keras,8423,"Here is the summary of the model in imdb_cnn sample, can anyone tell me what is the purpose of dense_6  layer?

embedding_6 (Embedding)      (None, 400, 50)           250000    
dropout_5 (Dropout)          (None, 400, 50)           0         
conv1d_4 (Conv1D)            (None, 398, 250)          37750     
global_max_pooling1d_5 (Glob (None, 250)               0         
**dense_6 (Dense)              (None, 250)               62750**     
dropout_6 (Dropout)          (None, 250)               0         
activation_5 (Activation)    (None, 250)               0         
dense_7 (Dense)              (None, 1)                 251       
activation_6 (Activation)    (None, 1)                 0         

Total params: 350,751
Trainable params: 350,751
Non-trainable params: 0
",0,Use of Dense layer in imdb_cnn sample,"Use of Dense layer in imdb_cnn sample Here is the summary of the model in imdb_cnn sample, can anyone tell me what is the purpose of dense_6  layer?

embedding_6 (Embedding)      (None, 400, 50)           250000    
dropout_5 (Dropout)          (None, 400, 50)           0         
conv1d_4 (Conv1D)            (None, 398, 250)          37750     
global_max_pooling1d_5 (Glob (None, 250)               0         
**dense_6 (Dense)              (None, 250)               62750**     
dropout_6 (Dropout)          (None, 250)               0         
activation_5 (Activation)    (None, 250)               0         
dense_7 (Dense)              (None, 1)                 251       
activation_6 (Activation)    (None, 1)                 0         

Total params: 350,751
Trainable params: 350,751
Non-trainable params: 0
"
keras,11493,"Hi,

This is a feature request that I think could be interesting for several users and I wish to share it, as I am not able to implement it.
In the field of scientific computing (especially Computational Fluid Dynamic), there are more and more attempts to use neural network to speed up expensive iterative computations. It can be done in two ways:
…
Let's I have 100 input data. My input layer uses a slinding windows equal to 10.

Here's my LSTM model : 

    inputs = tf.keras.Input(shape=(10,100))
    LSTM_1 = layers.LSTM(100, stateful=False, return_sequences=True)(inputs)
    FC_1 = layers.Dense(100)(LSTM_1)
    LSTM_2 = layers.LSTM(100, stateful=False, return_sequences=False)(FC_1)
    label = layers.Dense(5, activation='softmax')(LSTM_2)

Here's the model summary.

    Layer (type)                 Output Shape              Param #   
    =================================================================
    input (InputLayer)        (None, 10, 100)           0         
    _________________________________________________________________
    lstm_1 (LSTM)             (None, 10, 100)           80400     
    _________________________________________________________________
    dense (Dense)             (None, 10, 100)           10100     
    _________________________________________________________________
    lstm_2 (LSTM)             (None, 100)               80400     
    _________________________________________________________________
    label (Dense)             (None, 5)                1111      
    =================================================================
    Total params: 172,011
    Trainable params: 172,011
    Non-trainable params: 0
    _________________________________________________________________
    None

Below is the code to load data.

    h5_x = 'X.h5'
    h5_Y = 'Y.h5' 
    
    x_data = HDF5Matrix(h5_x, start=0, end=data_length)
    x_data = np.reshape(x_data,(data_length, 5))       
…
